…
         -> MaxPool 2x2                        (downsample, invariance)
         -> Dropout                            (regularization)

   Repeated for num_conv_blocks (default 3), with the channel schedule
   filters_start * 2^block:  32 -> 64 -> 128.

   Head:
       Flatten -> Dense(256) -> BatchNorm -> ReLU -> Dropout -> Dense(7, softmax)


4. FULL LAYER TABLE (vgg_small: num_conv_blocks=3, filters_start=32)
--------------------------------------------------------------------------------
   Layer                    Output shape        Params     approx. RF
   -----------------------  ------------------  ---------  ----------
   Input                    (48, 48, 1)                0        1
   Conv2D 3x3 /32 (same)    (48, 48, 32)             320        3
   BatchNorm + ReLU         (48, 48, 32)             128
   Conv2D 3x3 /32 (same)    (48, 48, 32)           9,248        5
   BatchNorm + ReLU         (48, 48, 32)             128
   MaxPool 2x2              (24, 24, 32)               0        6
   Dropout                  (24, 24, 32)               0
   Conv2D 3x3 /64 (same)    (24, 24, 64)          18,496       10
   BatchNorm + ReLU         (24, 24, 64)             256
   Conv2D 3x3 /64 (same)    (24, 24, 64)          36,928       14
   BatchNorm + ReLU         (24, 24, 64)             256
   MaxPool 2x2              (12, 12, 64)               0       16
   Dropout                  (12, 12, 64)               0
   Conv2D 3x3 /128 (same)   (12, 12, 128)         73,856       24
   BatchNorm + ReLU         (12, 12, 128)            512
   Conv2D 3x3 /128 (same)   (12, 12, 128)        147,584       32
   BatchNorm + ReLU         (12, 12, 128)            512
   MaxPool 2x2              (6, 6, 128)                0       36
   Dropout                  (6, 6, 128)                0
   Flatten                  (4608,)                    0
   Dense 256                (256,)             1,179,904      whole face
   BatchNorm + ReLU         (256,)                 1,024
   Dropout                  (256,)                     0
   Dense 7 (softmax)        (7,)                   1,799
   -----------------------  ------------------  ---------
   TOTAL                                        ~1,470,951
…
