…
         -> MaxPool 2x2                        (downsample, small-shift invariance)
         -> Dropout                            (regularization; blocks use dropout/2)
   Repeated num_conv_blocks (=3) times, channels filters_start*2^b: 32 -> 64 -> 128.
   Head:  Flatten -> Dense(256) -> BatchNorm -> ReLU -> Dropout -> Dense(7, softmax)


4. THE SAVED MODEL — model.summary()  (exact; see architecture.txt for the box table)
--------------------------------------------------------------------------------
   Layer (type)                     Output shape          Param #
   -------------------------------  --------------------  ----------
   input_layer (InputLayer)         (None, 48, 48, 1)              0
   block1_conv1 (Conv2D)            (None, 48, 48, 32)           288
   block1_bn1 (BatchNormalization)  (None, 48, 48, 32)           128
   block1_relu1 (ReLU)              (None, 48, 48, 32)             0
   block1_conv2 (Conv2D)            (None, 48, 48, 32)         9,216
   block1_bn2 (BatchNormalization)  (None, 48, 48, 32)           128
   block1_relu2 (ReLU)              (None, 48, 48, 32)             0
   block1_pool (MaxPooling2D)       (None, 24, 24, 32)             0
   block1_dropout (Dropout)         (None, 24, 24, 32)             0
   block2_conv1 (Conv2D)            (None, 24, 24, 64)        18,432
   block2_bn1 (BatchNormalization)  (None, 24, 24, 64)           256
   block2_relu1 (ReLU)              (None, 24, 24, 64)             0
   block2_conv2 (Conv2D)            (None, 24, 24, 64)        36,864
   block2_bn2 (BatchNormalization)  (None, 24, 24, 64)           256
   block2_relu2 (ReLU)              (None, 24, 24, 64)             0
   block2_pool (MaxPooling2D)       (None, 12, 12, 64)             0
   block2_dropout (Dropout)         (None, 12, 12, 64)             0
   block3_conv1 (Conv2D)            (None, 12, 12, 128)       73,728
   block3_bn1 (BatchNormalization)  (None, 12, 12, 128)          512
   block3_relu1 (ReLU)              (None, 12, 12, 128)            0
   block3_conv2 (Conv2D)            (None, 12, 12, 128)      147,456
   block3_bn2 (BatchNormalization)  (None, 12, 12, 128)          512
   block3_relu2 (ReLU)              (None, 12, 12, 128)            0
   block3_pool (MaxPooling2D)       (None, 6, 6, 128)              0
   block3_dropout (Dropout)         (None, 6, 6, 128)              0
   flatten (Flatten)                (None, 4608)                   0
   dense (Dense)                    (None, 256)            1,179,648
   batch_normalization              (None, 256)                1,024
   re_lu (ReLU)                     (None, 256)                    0
   dropout (Dropout)                (None, 256)                    0
   dense_1 (Dense)                  (None, 7)                  1,799
   -------------------------------  --------------------  ----------
   Total params:         1,470,247  (5.61 MB)
   Trainable params:     1,468,839  (5.60 MB)
   Non-trainable params:     1,408  (BatchNorm moving mean/variance)

   Note: conv layers use use_bias=False (BatchNorm's beta subsumes the bias), which is
   why block1_conv1 is 288 not 320. The Dense head is ~1.18M of ~1.47M params (80%) —
…
